…
n/Context.cpp:185.)\n\n```\n:::\n\n::: {.cell-output .cell-output-display execution_count=20}\n```\n===================================================================================================================\nLayer (type:depth-idx)                   Input Shape               Output Shape              Param #\n===================================================================================================================\nHittersModel                             [175, 19]                 [175]                     --\n├─Flatten: 1-1                           [175, 19]                 [175, 19]                 --\n├─Sequential: 1-2                        [175, 19]                 [175, 1]                  --\n│    └─Linear: 2-1                       [175, 19]                 [175, 50]                 1,000\n│    └─ReLU: 2-2                         [175, 50]                 [175, 50]                 --\n│    └─Dropout: 2-3                      [175, 50]                 [175, 50]                 --\n│    └─Linear: 2-4                       [175, 50]                 [175, 1]                  51\n===================================================================================================================\nTotal params: 1,051\nTrainable params: 1,051\nNon-trainable params: 0\nTotal mult-adds (M): 0.18\n===================================================================================================================\nInput size (MB): 0.01\nForward/backward pass size (MB): 0.07\nPara
…
     input_data=X_,\n        col_names=['input_size',\n                   'output_size',\n                   'num_params'])\n```\n\n::: {.cell-output .cell-output-display execution_count=40}\n```\n===================================================================================================================\nLayer (type:depth-idx)                   Input Shape               Output Shape              Param #\n===================================================================================================================\nMNISTModel                               [256, 1, 28, 28]          [256, 10]                 --\n├─Sequential: 1-1                        [256, 1, 28, 28]          [256, 10]                 --\n│    └─Sequential: 2-1                   [256, 1, 28, 28]          [256, 256]                --\n│    │    └─Flatten: 3-1                 [256, 1, 28, 28]          [256, 784]                --\n│    │    └─Linear: 3-2                  [256, 784]                [256, 256]                200,960\n│    │    └─ReLU: 3-3                    [256, 256]                [256, 256]                --\n│    │    └─Dropout: 3-4                 [256, 256]                [256, 256]                --\n│    └─Sequential: 2-2                   [256, 256]                [256, 128]                --\n│    │    └─Linear: 3-5                  [256, 256]                [256, 128]                32,896\n│    │    └─ReLU: 3-6                    [256, 128]                [256, 128]                --\n│    │    └─Dropout: 3-7                 [256, 128]                [256, 128]                --\n│    └─Linear: 2-3                       [256, 128]                [256, 10]                 1,290\n===================================================================================================================\nTotal params: 235,146\nTrainable params: 235,146\nNon-trainable params: 0\nTotal mult-adds (M): 60.20\n===================================================================================================================\nInput size (MB): 0.80\nForward/backward pass size (MB): 0.81\
…
     input_data=X_,\n        col_names=['input_size',\n                   'output_size',\n                   'num_params'])\n```\n\n::: {.cell-output .cell-output-display execution_count=56}\n```\n===================================================================================================================\nLayer (type:depth-idx)                   Input Shape               Output Shape              Param #\n===================================================================================================================\nCIFARModel                               [128, 3, 32, 32]          [128, 100]                --\n├─Sequential: 1-1                        [128, 3, 32, 32]          [128, 256, 2, 2]          --\n│    └─BuildingBlock: 2-1                [128, 3, 32, 32]          [128, 32, 16, 16]         --\n│    │    └─Conv2d: 3-1                  [128, 3, 32, 32]          [128, 32, 32, 32]         896\n│    │    └─ReLU: 3-2                    [128, 32, 32, 32]         [128, 32, 32, 32]         --\n│    │    └─MaxPool2d: 3-3               [128, 32, 32, 32]         [128, 32, 16, 16]         --\n│    └─BuildingBlock: 2-2                [128, 32, 16, 16]         [128, 64, 8, 8]           --\n│    │    └─Conv2d: 3-4                  [128, 32, 16, 16]         [128, 64, 16, 16]         18,496\n│    │    └─ReLU: 3-5                    [128, 64, 16, 16]         [128, 64, 16, 16]         --\n│    │    └─MaxPool2d: 3-6               [128, 64, 16, 16]         [128, 64, 8, 8]           --\n│    └─BuildingBlock: 2-3                [128, 64, 8, 8]           [128, 128, 4, 4]          --\n│    │    └─Conv2d: 3-7                  [128, 64, 8, 8]           [128, 128, 8, 8]          73,856\n│    │    └─ReLU: 3-8                    [128, 128, 8, 8]          [128, 128, 8, 8]          --\n│    │    └─MaxPool2d: 3-9               [128, 128, 8, 8]          [128, 128, 4, 4]          --\n│    └─BuildingBlock: 2-4                [128, 128, 4, 4]          [128, 256, 2, 2]          --\n│    │    └─Conv2d: 3-10                 [128, 128, 4, 4]          [128, 256, 4, 4]          295,168\n│    │    └─ReLU: 3-11                   [128, 256, 4, 4]          [128, 256, 4, 4]          --\n│    │    └─MaxPool2d: 3-12              [128, 256, 4, 4]          [128, 256, 2, 2]          --\n├─Sequential: 1-2                        [128, 1024]               [128, 100]                --\n│    └─Dropout: 2-5                      [128, 1024]               [128, 1024]               --\n│    └─Linear: 2-6                       [128, 1024]               [128, 512]                524,800\n│    └─ReLU: 2-7                         [128, 512]                [128, 512]                --\n│    └─Linear: 2-8                       [128, 512]                [128, 100]                51,300\n===================================================================================================================\nTotal params: 964,516\nTrainable params: 964,516\nNon-trainable params: 0\nTotal mult-adds (G): 2.01\n===================================================================================================================\nInput size (MB): 1.57\nForward/backward pass size (MB): 63.54\
…
 2.38MB/s]\r100%|█████████▉| 97.8M/97.8M [00:50<00:00, 2.52MB/s]\r100%|██████████| 97.8M/97.8M [00:50<00:00, 2.02MB/s]\n```\n:::\n\n::: {.cell-output .cell-output-display execution_count=63}\n```\n===================================================================================================================\nLayer (type:depth-idx)                   Input Shape               Output Shape              Param #\n===================================================================================================================\nResNet                                   [6, 3, 224, 224]          [6, 1000]                 --\n├─Conv2d: 1-1                            [6, 3, 224, 224]          [6, 64, 112, 112]         9,408\n├─BatchNorm2d: 1-2                       [6, 64, 112, 112]         [6, 64, 112, 112]         128\n├─ReLU: 1-3                              [6, 64, 112, 112]         [6, 64, 112, 112]         --\n├─MaxPool2d: 1-4                         [6, 64, 112, 112]         [6, 64, 56, 56]           --\n├─Sequential: 1-5                        [6, 64, 56, 56]           [6, 256, 56, 56]          --\n│    └─Bottleneck: 2-1                   [6, 64, 56, 56]           [6, 256, 56, 56]          --\n│    │    └─Conv2d: 3-1                  [6, 64, 56, 56]           [6, 64, 56, 56]           4,096\n│    │    └─BatchNorm2d: 3-2             [6, 64, 56, 56]           [6, 64, 56, 56]           128\n│    │    └─ReLU: 3-3                    [6, 64, 56, 56]           [6, 64, 56, 56]           --\n│    │    └─Conv2d: 3-4                  [6, 64, 56, 56]           [6, 64, 56, 56]           36,864\n│    │    └─BatchNorm2d: 3-5             [6, 64, 56, 56]           [6, 64, 56, 56]           128\n│    │    └─ReLU: 3-6                    [6, 64, 56, 56]           [6, 64, 56, 56]           --\n│    │    └─Conv2d: 3-7                  [6, 64, 56, 56]           [6, 256, 56, 56]          16,384\n│    │    └─BatchNorm2d: 3-8             [6, 256, 56, 56]          [6, 256, 56, 56]          512\n│    │    └─Sequential: 3-9              [6, 64, 56, 56]           [6, 256, 56, 56]          16,896\n│    │    └─ReLU: 3-10                   [6, 256, 56, 56]          [6, 256, 56, 56]          --\n│    └─Bottleneck: 2-2                   [6, 256, 56, 56]          [6, 256, 56, 56]          --\n│    │    └─Conv2d: 3-11                 [6, 256, 56, 56]          [6, 64, 56, 56]           16,384\n│    │    └─BatchNorm2d: 3-12            [6, 64, 56, 56]           [6, 64, 56, 56]           128\n│    │    └─ReLU: 3-13                   [6, 64, 56, 56]           [6, 64, 56, 56]           --\n│    │    └─Conv2d: 3-14                 [6, 64, 56, 56]           [6, 64, 56, 56]           36,864\n│    │    └─BatchNorm2d: 3-15            [6, 64, 56, 56]           [6, 64, 56, 56]           128\n│    │    └─ReLU: 3-16                   [6, 64, 56, 56]           [6, 64, 56, 56]           --\n│    │    └─Conv2d: 3-17                 [6, 64, 56, 56]           [6, 256, 56, 56]          16,384\n│    │    └─BatchNorm2d: 3-18            [6, 256, 56, 56]          [6, 256, 56, 56]          512\n│    │    └─ReLU: 3-19                   [6, 256, 56, 56]          [6, 256, 56, 56]          --\n│    └─Bottleneck: 2-3                   [6, 256, 56, 56]          [6, 256, 56, 56]          --\n│    │    └─Conv2d: 3-20                 [6, 256, 56, 56]          [6, 64, 56, 56]           16,384\n│    │    └─BatchNorm2d: 3-21            [6, 64, 56, 56]           [6, 64, 56, 56]           128\n│    │    └─ReLU: 3-22                   [6, 64, 56, 56]           [6, 64, 56, 56]           --\n│    │    └─Conv2d: 3-23                 [6, 64, 56, 56]           [6, 64, 56, 56]           36,864\n│    │    └─BatchNorm2d: 3-24            [6, 64, 56, 56]           [6, 64, 56, 56]           128\n│    │    └─ReLU: 3-25                   [6, 64, 56, 56]           [6, 64, 56, 56]           --\n│    │    └─Conv2d: 3-26                 [6, 64, 56, 56]           [6, 256, 56, 56]          16,384\n│    │    └─BatchNorm2d: 3-27            [6, 256, 56, 56]          [6, 256, 56, 56]          512\n│    │    └─ReLU: 3-28                   [6, 256, 56, 56]          [6, 256, 56, 56]          --\n├─Sequential: 1-6                        [6, 256, 56, 56]          [6, 512, 28, 28]          --\n│    └─Bottleneck: 2-4                   [6, 256, 56, 56]          [6, 512, 28, 28]          --\n│    │    └─Conv2d: 3-29                 [6, 256, 56, 56]          [6, 128, 56, 56]          32,768\n│    │    └─BatchNorm2d: 3-30            [6, 128, 56, 56]          [6, 128, 56, 56]          256\n│    │    └─ReLU: 3-31                   [6, 128, 56, 56]          [6, 128, 56, 56]          --\n│    │    └─Conv2d: 3-32                 [6, 128, 56, 56]          [6, 128, 28, 28]          147,456\n│    │    └─BatchNorm2d: 3-33            [6, 128, 28, 28]          [6, 128, 28, 28]          256\n│    │    └─ReLU: 3-34                   [6, 128, 28, 28]          [6, 128, 28, 28]          --\n│    │    └─Conv2d: 3-35                 [6, 128, 28, 28]          [6, 512, 28, 28]          65,536\n│    │    └─BatchNorm2d: 3-36            [6, 512, 28, 28]          [6, 512, 28, 28]          1,024\n│    │    └─Sequential: 3-37             [6, 256, 56, 56]          [6, 512, 28, 28]          132,096\n│    │    └─ReLU: 3-38                   [6, 512, 28, 28]          [6, 512, 28, 28]          --\n│    └─Bottleneck: 2-5                   [6, 512, 28, 28]          [6, 512, 28, 28]          --\n│    │    └─Conv2d: 3-39                 [6, 512, 28, 28]          [6, 128, 28, 28]          65,536\n│    │    └─BatchNorm2d: 3-40            [6, 128, 28, 28]          [6, 128, 28, 28]          256\n│    │    └─ReLU: 3-41                   [6, 128, 28, 28]          [6, 128, 28, 28]          --\n│    │    └─Conv2d: 3-42                 [6, 128, 28, 28]          [6, 128, 28, 28]          147,456\n│    │    └─BatchNorm2d: 3-43            [6, 128, 28, 28]          [6, 128, 28, 28]          256\n│    │    └─ReLU: 3-44                   [6, 128, 28, 28]          [6, 128, 28, 28]          --\n│    │    └─Conv2d: 3-45                 [6, 128, 28, 28]          [6, 512, 28, 28]          65,536\n│    │    └─BatchNorm2d: 3-46            [6, 512, 28, 28]          [6, 512, 28, 28]          1,024\n│    │    └─ReLU: 3-47                   [6, 512, 28, 28]          [6, 512, 28, 28]          --\n│    └─Bottleneck: 2-6                   [6, 512, 28, 28]          [6, 512, 28, 28]          --\n│    │    └─Conv2d: 3-48                 [6, 512, 28, 28]          [6, 128, 28, 28]          65,536\n│    │    └─BatchNorm2d: 3-49            [6, 128, 28, 28]          [6, 128, 28, 28]          256\n│    │    └─ReLU: 3-50                   [6, 128, 28, 28]          [6, 128, 28, 28]          --\n│    │    └─Conv2d: 3-51                 [6, 128, 28, 28]          [6, 128, 28, 28]          147,456\n│    │    └─BatchNorm2d: 3-52            [6, 128, 28, 28]          [6, 128, 28, 28]          256\n│    │    └─ReLU: 3-53                   [6, 128, 28, 28]          [6, 128, 28, 28]          --\n│    │    └─Conv2d: 3-54                 [6, 128, 28, 28]          [6, 512, 28, 28]          65,536\n│    │    └─BatchNorm2d: 3-55            [6, 512, 28, 28]          [6, 512, 28, 28]          1,024\n│    │    └─ReLU: 3-56                   [6, 512, 28, 28]          [6, 512, 28, 28]          --\n│    └─Bottleneck: 2-7                   [6, 512, 28, 28]          [6, 512, 28, 28]          --\n│    │    └─Conv2d: 3-57                 [6, 512, 28, 28]          [6, 128, 28, 28]          65,536\n│    │    └─BatchNorm2d: 3-58            [6, 128, 28, 28]          [6, 128, 28, 28]          256\n│    │    └─ReLU: 3-59                   [6, 128, 28, 28]          [6, 128, 28, 28]          --\n│    │    └─Conv2d: 3-60                 [6, 128, 28, 28]          [6, 128, 28, 28]          147,456\n│    │    └─BatchNorm2d: 3-61            [6, 128, 28, 28]          [6, 128, 28, 28]          256\n│    │    └─ReLU: 3-62                   [6, 128, 28, 28]          [6, 128, 28, 28]          --\n│    │    └─Conv2d: 3-63                 [6, 128, 28, 28]          [6, 512, 28, 28]          65,536\n│    │    └─BatchNorm2d: 3-64            [6, 512, 28, 28]          [6, 512, 28, 28]          1,024\n│    │    └─ReLU: 3-65                   [6, 512, 28, 28]          [6, 512, 28, 28]          --\n├─Sequential: 1-7                        [6, 512, 28, 28]          [6, 1024, 14, 14]         --\n│    └─Bottleneck: 2-8                   [6, 512, 28, 28]          [6, 1024, 14, 14]         --\n│    │    └─Conv2d: 3-66                 [6, 512, 28, 28]          [6, 256, 28, 28]          131,072\n│    │    └─BatchNorm2d: 3-67            [6, 256, 28, 28]          [6, 256, 28, 28]          512\n│    │    └─ReLU: 3-68                   [6, 256, 28, 28]          [6, 256, 28, 28]          --\n│    │    └─Conv2d: 3-69                 [6, 256, 28, 28]          [6, 256, 14, 14]          589,824\n│    │    └─BatchNorm2d: 3-70            [6, 256, 14, 14]          [6, 256, 14, 14]          512\n│    │    └─ReLU: 3-71                   [6, 256, 14, 14]          [6, 256, 14, 14]          --\n│    │    └─Conv2d: 3-72                 [6, 256, 14, 14]          [6, 1024, 14, 14]         262,144\n│    │    └─BatchNorm2d: 3-73            [6, 1024, 14, 14]         [6, 1024, 14, 14]         2,048\n│    │    └─Sequential: 3-74             [6, 512, 28, 28]          [6, 1024, 14, 14]         526,336\n│    │    └─ReLU: 3-75                   [6, 1024, 14, 14]         [6, 1024, 14, 14]         --\n│    └─Bottleneck: 2-9                   [6, 1024, 14, 14]         [6, 1024, 14, 14]         --\n│    │    └─Conv2d: 3-76                 [6, 1024, 14, 14]         [6, 256, 14, 14]          262,144\n│    │    └─BatchNorm2d: 3-77            [6, 256, 14, 14]          [6, 256, 14, 14]          512\n│    │    └─ReLU: 3-78                   [6, 256, 14, 14]          [6, 256, 14, 14]          --\n│    │    └─Conv2d: 3-79                 [6, 256, 14, 14]          [6, 256, 14, 14]          589,824\n│    │    └─BatchNorm2d: 3-80            [6, 256, 14, 14]          [6, 256, 14, 14]          512\n│    │    └─ReLU: 3-81                   [6, 256, 14, 14]          [6, 256, 14, 14]          --\n│    │    └─Conv2d: 3-82                 [6, 256, 14, 14]          [6, 1024, 14, 14]         262,144\n│    │    └─BatchNorm2d: 3-83            [6, 1024, 14, 14]         [6, 1024, 14, 14]         2,048\n│    │    └─ReLU: 3-84                   [6, 1024, 14, 14]         [6, 1024, 14, 14]         --\n│    └─Bottleneck: 2-10                  [6, 1024, 14, 14]         [6, 1024, 14, 14]         --\n│    │    └─Conv2d: 3-85                 [6, 1024, 14, 14]         [6, 256, 14, 14]          262,144\n│    │    └─BatchNorm2d: 3-86            [6, 256, 14, 14]          [6, 256, 14, 14]          512\n│    │    └─ReLU: 3-87                   [6, 256, 14, 14]          [6, 256, 14, 14]          --\n│    │    └─Conv2d: 3-88                 [6, 256, 14, 14]          [6, 256, 14, 14]          589,824\n│    │    └─BatchNorm2d: 3-89            [6, 256, 14, 14]          [6, 256, 14, 14]          512\n│    │    └─ReLU: 3-90                   [6, 256, 14, 14]          [6, 256, 14, 14]          --\n│    │    └─Conv2d: 3-91                 [6, 256, 14, 14]          [6, 1024, 14, 14]         262,144\n│    │    └─BatchNorm2d: 3-92            [6, 1024, 14, 14]         [6, 1024, 14, 14]         2,048\n│    │    └─ReLU: 3-93                   [6, 1024, 14, 14]         [6, 1024, 14, 14]         --\n│    └─Bottleneck: 2-11                  [6, 1024, 14, 14]         [6, 1024, 14, 14]         --\n│    │    └─Conv2d: 3-94                 [6, 1024, 14, 14]         [6, 256, 14, 14]          262,144\n│    │    └─BatchNorm2d: 3-95            [6, 256, 14, 14]          [6, 256, 14, 14]          512\n│    │    └─ReLU: 3-96                   [6, 256, 14, 14]          [6, 256, 14, 14]          --\n│    │    └─Conv2d: 3-97                 [6, 256, 14, 14]          [6, 256, 14, 14]          589,824\n│    │    └─BatchNorm2d: 3-98            [6, 256, 14, 14]          [6, 256, 14, 14]          512\n│    │    └─ReLU: 3-99                   [6, 256, 14, 14]          [6, 256, 14, 14]          --\n│    │    └─Conv2d: 3-100                [6, 256, 14, 14]          [6, 1024, 14, 14]         262,144\n│    │    └─BatchNorm2d: 3-101           [6, 1024, 14, 14]         [6, 1024, 14, 14]         2,048\n│    │    └─ReLU: 3-102                  [6, 1024, 14, 14]         [6, 1024, 14, 14]         --\n│    └─Bottleneck: 2-12                  [6, 1024, 14, 14]         [6, 1024, 14, 14]         --\n│    │    └─Conv2d: 3-103                [6, 1024, 14, 14]         [6, 256, 14, 14]          262,144\n│    │    └─BatchNorm2d: 3-104           [6, 256, 14, 14]          [6, 256, 14, 14]          512\n│    │    └─ReLU: 3-105                  [6, 256, 14, 14]          [6, 256, 14, 14]          --\n│    │    └─Conv2d: 3-106                [6, 256, 14, 14]          [6, 256, 14, 14]          589,824\n│    │    └─BatchNorm2d: 3-107           [6, 256, 14, 14]          [6, 256, 14, 14]          512\n│    │    └─ReLU: 3-108                  [6, 256, 14, 14]          [6, 256, 14, 14]          --\n│    │    └─Conv2d: 3-109                [6, 256, 14, 14]          [6, 1024, 14, 14]         262,144\n│    │    └─BatchNorm2d: 3-110           [6, 1024, 14, 14]         [6, 1024, 14, 14]         2,048\n│    │    └─ReLU: 3-111                  [6, 1024, 14, 14]         [6, 1024, 14, 14]         --\n│    └─Bottleneck: 2-13                  [6, 1024, 14, 14]         [6, 1024, 14, 14]         --\n│    │    └─Conv2d: 3-112                [6, 1024, 14, 14]         [6, 256, 14, 14]          262,144\n│    │    └─BatchNorm2d: 3-113           [6, 256, 14, 14]          [6, 256, 14, 14]          512\n│    │    └─ReLU: 3-114                  [6, 256, 14, 14]          [6, 256, 14, 14]          --\n│    │    └─Conv2d: 3-115                [6, 256, 14, 14]          [6, 256, 14, 14]          589,824\n│    │    └─BatchNorm2d: 3-116           [6, 256, 14, 14]          [6, 256, 14, 14]          512\n│    │    └─ReLU: 3-117                  [6, 256, 14, 14]          [6, 256, 14, 14]          --\n│    │    └─Conv2d: 3-118                [6, 256, 14, 14]          [6, 1024, 14, 14]         262,144\n│    │    └─BatchNorm2d: 3-119           [6, 1024, 14, 14]         [6, 1024, 14, 14]         2,048\n│    │    └─ReLU: 3-120                  [6, 1024, 14, 14]         [6, 1024, 14, 14]         --\n├─Sequential: 1-8                        [6, 1024, 14, 14]         [6, 2048, 7, 7]           --\n│    └─Bottleneck: 2-14                  [6, 1024, 14, 14]         [6, 2048, 7, 7]           --\n│    │    └─Conv2d: 3-121                [6, 1024, 14, 14]         [6, 512, 14, 14]          524,288\n│    │    └─BatchNorm2d: 3-122           [6, 512, 14, 14]          [6, 512, 14, 14]          1,024\n│    │    └─ReLU: 3-123                  [6, 512, 14, 14]          [6, 512, 14, 14]          --\n│    │    └─Conv2d: 3-124                [6, 512, 14, 14]          [6, 512, 7, 7]            2,359,296\n│    │    └─BatchNorm2d: 3-125           [6, 512, 7, 7]            [6, 512, 7, 7]            1,024\n│    │    └─ReLU: 3-126                  [6, 512, 7, 7]            [6, 512, 7, 7]            --\n│    │    └─Conv2d: 3-127                [6, 512, 7, 7]            [6, 2048, 7, 7]           1,048,576\n│    │    └─BatchNorm2d: 3-128           [6, 2048, 7, 7]           [6, 2048, 7, 7]           4,096\n│    │    └─Sequential: 3-129            [6, 1024, 14, 14]         [6, 2048, 7, 7]           2,101,248\n│    │    └─ReLU: 3-130                  [6, 2048, 7, 7]           [6, 2048, 7, 7]           --\n│    └─Bottleneck: 2-15                  [6, 2048, 7, 7]           [6, 2048, 7, 7]           --\n│    │    └─Conv2d: 3-131                [6, 2048, 7, 7]           [6, 512, 7, 7]            1,048,576\n│    │    └─BatchNorm2d: 3-132           [6, 512, 7, 7]            [6, 512, 7, 7]            1,024\n│    │    └─ReLU: 3-133                  [6, 512, 7, 7]            [6, 512, 7, 7]            --\n│    │    └─Conv2d: 3-134                [6, 512, 7, 7]            [6, 512, 7, 7]            2,359,296\n│    │    └─BatchNorm2d: 3-135           [6, 512, 7, 7]            [6, 512, 7, 7]            1,024\n│    │    └─ReLU: 3-136                  [6, 512, 7, 7]            [6, 512, 7, 7]            --\n│    │    └─Conv2d: 3-137                [6, 512, 7, 7]            [6, 2048, 7, 7]           1,048,576\n│    │    └─BatchNorm2d: 3-138           [6, 2048, 7, 7]           [6, 2048, 7, 7]           4,096\n│    │    └─ReLU: 3-139                  [6, 2048, 7, 7]           [6, 2048, 7, 7]           --\n│    └─Bottleneck: 2-16                  [6, 2048, 7, 7]           [6, 2048, 7, 7]           --\n│    │    └─Conv2d: 3-140                [6, 2048, 7, 7]           [6, 512, 7, 7]            1,048,576\n│    │    └─BatchNorm2d: 3-141           [6, 512, 7, 7]            [6, 512, 7, 7]            1,024\n│    │    └─ReLU: 3-142                  [6, 512, 7, 7]            [6, 512, 7, 7]            --\n│    │    └─Conv2d: 3-143                [6, 512, 7, 7]            [6, 512, 7, 7]            2,359,296\n│    │    └─BatchNorm2d: 3-144           [6, 512, 7, 7]            [6, 512, 7, 7]            1,024\n│    │    └─ReLU: 3-145                  [6, 512, 7, 7]            [6, 512, 7, 7]            --\n│    │    └─Conv2d: 3-146                [6, 512, 7, 7]            [6, 2048, 7, 7]           1,048,576\n│    │    └─BatchNorm2d: 3-147           [6, 2048, 7, 7]           [6, 2048, 7, 7]           4,096\n│    │    └─ReLU: 3-148                  [6, 2048, 7, 7]           [6, 2048, 7, 7]           --\n├─AdaptiveAvgPool2d: 1-9                 [6, 2048, 7, 7]           [6, 2048, 1, 1]           --\n├─Linear: 1-10                           [6, 2048]                 [6, 1000]                 2,049,000\n===================================================================================================================\nTotal params: 25,557,032\nTrainable params: 25,557,032\nNon-trainable params: 0\nTotal mult-adds (G): 24.54\n===================================================================================================================\nInput size (MB): 3.61\nForward/backward pass size (MB):
…
